Bit_trading/Season1_LSTM/100n_1L_BILSTM_7ep_5feature.pth (torch, 133318 bytes, 30 tensors)

lstm.weight_ih_l0 f4 [128, 5]
00000000: 57d6 3cbe 16a9 6fbe 1962 49be 3ea4 63be
00000010: f1c8 87bd 3a26 38be dd8d 31bd 9065 a7be
00000020: 17d3 5ebd 3c06 b7be f641 45be 6c5c 47be
00000030: 32c5 a5be 05d2 0fbe 3e1b 6fbe 2342 f5bd
00000040: 2d46 41be ba2c a3be a9eb 7ebe eb67 83bd
00000050: 270e 4f3d e2bd 903e 90e5 323e de91 ad3b
00000060: 635a 2b3e 7f83 dd3c d99b 8dbd e9f6 eabc
00000070: 3f35 78be b334 8ebe d57b 88be 2c98 52be
00000080: 84dd 4bbe 17b7 acbe 6343 2ebc 3a63 a6bc
00000090: 128c 8fbd f9fc d2bd c230 d3bd 902a 8fbd
000000a0: b95b cfbd 7376 89be 2fcb a6be 13b9 b7bd
000000b0: a17a 73be 22cc af3d f0c1 6fbd 226b 0d3e
000000c0: c060 a93d c2c0 443d 8f54 d43d 8589 a13e
000000d0: f070 413e 8bd3 873e 173e 983e 8f5e 863c
000000e0: 845b 393d 19ec 283e 8c77 593e 6c65 493d
000000f0: 4fde 813e d3b5 8f3d 5506 7c3d 0024 be3e
00000100: ae18 5a3e edd6 d53e bf0c 4d3e 96b3 5b3e
00000110: 849d 803e 6611 353e f65e 21bd 8453 b63d
00000120: bb53 7d3e b4a8 4c3e c5d0 0ebd 0368 f73e
00000130: 2783 d3be 9225 aabe 56f1 84be 25e2 fabd
00000140: a0e5 5cbe 4e6a 8abe a57d 12be dcce 87be
00000150: 054e 08be 93c0 463d e0ac 9a3d 2e89 873e
00000160: d7bb 843d af0c 1b3e db8a 363d 9837 a03d
00000170: 0ad6 943d 94e1 08bd 7dbc 993e 8282 483e
00000180: 6b72 583e 52b9 253d 302d 5c3e 635b 7a3d
00000190: ad0f ec3d ce6a 033e 19ff 773e 8989 4b3d
000001a0: 22a1 b73d b8d5 c43e ceb2 43be f379 55be
000001b0: 0653 c3be c0a9 c5be f91f 95bd 6160 31be
000001c0: c347 b6be c9ca 46be b3ef 8dbe 55b4 f43d
000001d0: 9dce 923e 0fde 323e 16dc 943e 126c 5a3d
000001e0: b97b f23c f033 293e 8ffd 543d 8816 393e
000001f0: b3b9 343d 9f45 533e 5ab4 663e ffe0 1f3e
00000200: b8c0 a03d f3e7 923e 8908 e2bc a711 86be
00000210: 200c d2bd 3636 76be 5f90 18be 6222 333e
00000220: 19f9 d23c 98a2 133e 6f7a 113e 70de 7f3e
00000230: 6792 883e 0058 8f3e afd9 713e af5d 073d
00000240: 4227 a43d 7995 eabd eef6 c2be f4ab 83be
00000250: 6a4d cdbd d538 24be 1f78 653c e0b9 debe
00000260: b961 a2be 140d babe a8ad b9be 66b4 abbd
00000270: 2a60 a73d bbfe 873d 5732 263e 26a0 973d
00000280: 5585 383d f05c 1abd bfcd 6fbd 74d0 82be
00000290: ab51 be3b 9b35 1a3e 7eb3 8b3c ded5 753c
000002a0: 26a0 88be f922 efbd f40c fcbd 3c0c 3dbe
000002b0: 3c2e 5dbe 76a4 8cbe f7cf 97be 7e39 76bd
000002c0: e36c d7bd 336c 9cbd 3d63 b5bc a892 4c3d
000002d0: aa5d 353e 51db e03d af25 853d a9af 323e
000002e0: 76d9 b23e 35fa 543d 7b5b 3abd a4d4 73be
000002f0: eff9 80bd 834c be3c d122 8e3d 045a 85be
00000300: 80c7 21bd e814 d9bc 82d5 39be c25d 7cbe
00000310: 0b2f d4bd 7228 5d3d a50e a33b d8a4 59be
00000320: 13df 773c 2f4a 3bbe 3055 02be 3c0a b8bd
00000330: 754a 42be c067 733e a6ba dd3b c5bc 263e
00000340: 55ed 813e 61e9 3cbc 88ed 743e 88f8 2c3e
00000350: c913 f43d 7039 583e 18f5 003e d036 a93d
00000360: 5f43 553e 12d0 823c da91 323e cb66 3d3e
00000370: 0d00 503d 53a5 113e abde b03d 2b1a eb3d
00000380: 359f 923e f7a3 b83e 0a87 563b d0a6 9a3e
00000390: d820 e13d 42ea e63d 5ddd 863e fed2 823e
000003a0: e8cf 733e de80 d93d a0c3 8f3e 4f98 df3c
000003b0: 5d82 b1bd 87f7 1cbe 9314 49be 8ab8 81be
000003c0: 76d7 0dbe 78e2 2cbe 6ffa cabd 726c 6cbe
000003d0: 70b5 d5bd c472 083e 321a 4e3e 985b 003d
000003e0: 04d1 00bd aa2d 3e3e 4872 333e 3202 e93d
000003f0: 5c02 3b3d f3e8 243d 61ae 3cbc b907 8e3d
-0.18441139 -0.23404345 -0.19666328 -0.22230622 -0.066301234 -0.17983332 -0.043348182 -0.32694674
-0.05440053 -0.35746944 -0.19263443 -0.1946885 -0.3237701 -0.1404496 -0.23350236 -0.11975505
-0.18874426 -0.3187006 -0.24894585 -0.06416305 0.050550606 0.2826987 0.17470384 0.0052969297
0.16733699 0.027040241 -0.06914491 -0.028682189 -0.24239062 -0.2777458 -0.26656976 -0.20565861
-0.1990872 -0.33733436 -0.010636183 -0.020310987 -0.07009138 -0.10302157 -0.10312034 -0.0699054
-0.101249166 -0.26848182 -0.32576892 -0.08970847 -0.23777248 0.08583857 -0.058534563 0.13810399
0.08270407 0.04803539 0.10367691 0.31550232 0.18890738 0.26528582 0.2973487 0.01640251
0.04525329 0.16496314 0.2123701 0.04916899 0.2536492 0.07017102 0.061529476 0.3713684
0.21298477 0.41765538 0.20024393 0.21455225 0.25120175 0.17682418 -0.039397202 0.08902648
0.24738972 0.1998623 -0.034867067 0.48321542 -0.41311 -0.3323179 -0.25965375 -0.12250165
-0.2157197 -0.2703423 -0.14305742 -0.2652501 -0.13311012 0.048523497 0.075525045 0.26471847
0.0648114 0.15141557 0.044566017 0.07823104 0.07267387 -0.033418253 0.30026618 0.19581035
0.21137397 0.04045994 0.21501613 0.06112231 0.115264274 0.12833712 0.24218406 0.04969171
0.089662805 0.38444304 -0.19111177 -0.20847301 -0.3814928 -0.3860607 -0.07281489 -0.17321922
-0.35601625 -0.19413294 -0.27721938 0.11948458 0.28673258 0.17467521 0.29074162 0.05332572
0.029600011 0.16523719 0.051999625 0.18075001 0.04412241 0.20632027 0.22529736 0.15613173
0.07849258 0.28692588 -0.02759196 -0.26185343 -0.10256219 -0.24044117 -0.14898823 0.17493585
0.025753545 0.14417493 0.14206861 0.24987197 0.26674196 0.27996826 0.23618196 0.033048328
0.080153 -0.11454291 -0.38079017 -0.25717127 -0.10024531 -0.16037305 0.01400569 -0.43501186
-0.3171518 -0.36338103 -0.36265302 -0.08384018 0.08172639 0.06640383 0.1623014 0.07403593
0.04504903 -0.03768629 -0.058545824 -0.25549662 0.0058080754 0.15059511 0.017053362 0.015004603
-0.26684684 -0.116765924 -0.12307158 -0.18461698 -0.21599668 -0.27469224 -0.29650852 -0.060113423
-0.10518815 -0.07637825 -0.022142047 0.04994455 0.17711511 0.10979331 0.06501328 0.17449822
0.34931535 0.05199643 -0.0454974 -0.23811585 -0.06297671 0.023229843 0.069402345 -0.2604524
-0.0394969 -0.026499227 -0.18147853 -0.24645141 -0.10360535 0.05399365 0.004976111 -0.21254289
0.015128869 -0.18290018 -0.12727809 -0.08986327 -0.18973716 0.23770046 0.006766635 0.16282947
0.25376382 -0.011530251 0.23918736 0.16891682 0.11917836 0.2111566 0.12593496 0.08262408
0.20826481 0.015968356 0.1743845 0.18496244 0.0507813 0.14223222 0.086362205 0.114796005
0.2863709 0.36062595 0.0032734298 0.30205393 0.109925926 0.1127515 0.26340762 0.255516
0.23809779 0.106202826 0.28078938 0.027294306 -0.08667443 -0.15328799 -0.19636755 -0.25336105
-0.13851723 -0.16883266 -0.09911048 -0.23088244 -0.10434997 0.1332503 0.2012718 0.03133735
-0.031449333 0.18572107 0.17524064 0.11377372 0.045656547 0.04026122 -0.011516185 0.06935067

lstm.weight_hh_l0 f4 [128, 32]
00000000: f196 38be 8554 12bd 8ae9 973b 85c5 53bd
00000010: 1f0c b6be 2084 873d 0e45 7bbd 0fc1 943d
00000020: 75c0 dfbd bc7a 14bd d8f0 edbc f0cc 8f3e
00000030: 6b8e 523e 1f2a 9bbd 4c91 c73e e5c4 8bbe
00000040: 1581 913e 5de1 93be ced6 a03c 1d26 153e
00000050: 6c13 913c 806b 6c3e 29ad 683d bf48 413e
00000060: 8fd4 323d 620c 85be 7514 60bd a753 b5bc
00000070: f8cb 373c ed54 d8bc d8ef 103e 6759 843e
00000080: f7a7 8b3c 65fa 50be 5369 03be b444 de3c
00000090: c9c3 d9bd bad4 523e 9ec2 b03c b612 35be
000000a0: dee1 0bbe 27e1 edbc d3f4 1abe 20f2 643e
000000b0: 9fa6 b53e 53cc 753d b16b 573e e41f 86be
000000c0: 436a 053e 6354 92bc 87af f53d d849 943e
000000d0: cb4a 3bbe 32c0 803d dbd6 1d3e 4a7c 823d
000000e0: 6e15 99bc 0c27 5e3d e788 983d 425a 0f3d
000000f0: ecf5 b53d d3bc 6c3e 7791 0dbc cd17 9e3c
00000100: 9215 25be c500 43be 0ad3 1b3e b582 fd3d
00000110: 1263 01bf 9236 943e 0399 45be 376f 643c
00000120: 4073 ec3d 3b7f 683e c51d 93be ccb5 403e
00000130: 1ada a43e b939 0dbe 3b38 533e 961f 13be
00000140: 1727 0b3e 9060 98be d176 c23e 3de8 103e
00000150: 04b4 7bbe 8e01 703e a0e2 1f3e df4d a63e
00000160: 8f95 433e 18bd 48be ef11 4c3e f6f5 993e
00000170: f715 053e 9879 b73d 3572 113d ad93 673e
00000180: 6ceb 863c 6c09 043e bbbe 60bc 5d4a e7bc
00000190: 3984 45be 1af4 5a3e 82d1 0abe 59cb 53bd
000001a0: ffe7 0c3e 9bad 383d 97f6 7ebe 83e8 83bc
000001b0: 59ea f93d a296 8cbe ea16 833e 38c4 f9bc
000001c0: 77fb 583a d72d 54be 3a67 0d3d 066e 963e
000001d0: 838d 45be 2466 ac3d a989 9fbd de4d 373e
000001e0: c3e6 e13d 2a0f a5be 95fd 113e 05fa 6cbd
000001f0: d943 b53d 5023 df3d 0f3c 483e 2e8b 9c3c
00000200: f1fd 063e a56c b13d 7364 0abe 9e0a 3fbe
00000210: a188 723e 3539 54be e038 fc3d 7ab2 ca3c
00000220: 846c 23be ca80 8cbe 4eca 973d 5ea8 87be
00000230: a755 8fbe 8707 8f3e 3772 5cbe a792 19bd
00000240: 0df2 c9bb c170 6e3e 42b2 80be f572 86bd
00000250: e632 a3bc 1f54 173d f49b 3dbd cb60 94be
00000260: c945 acbb 495e 953e 4805 23be 13c9 cebd
00000270: bb2c 46be efe6 26bc cdc3 8f3c 94c4 983d
00000280: 9418 283e 50b8 38be ab70 c6bd 6101 2ebd
00000290: ae84 c1be a278 183e 6312 813e 8329 cabd
000002a0: 9794 2abe e9a1 4a3d aea0 99bb e41e 29be
000002b0: 1c04 823e 4aa6 b8bb 76f7 673e 107d 9fbc
000002c0: 7711 acbb 3c0e 8abe 6485 983d aeb0 983d
000002d0: bf88 a03b 92d9 27be 0ef3 8a3d b2ab 8b3e
000002e0: 2ac7 483c f763 c03d 9794 243e 82e7 44bd
000002f0: f149 c53d 8722 1bbd 3cc2 25bc d2aa 3f3e
00000300: eec6 b0bd bd19 933d 2c70 113d 1056 323d
00000310: 1c35 0abe b199 4c3c 06ea 5cbe 8f11 633c
00000320: 95b0 823d 2e7b 0cbd d3ca a3be 52fc 693e
00000330: 38a6 5f3e fd28 21be 1d9f 743e 80ab e5bd
00000340: 8c3f 22be 5675 f5bd 15a9 c93d 7468 b73e
00000350: e971 eabc 1d52 483e e131 6abd 41f4 ae3d
00000360: d5ce 773d 5384 a0be bb28 d2bc 04b8 f43d
00000370: e3af 983e 785b 9c3d 582b 593e cecd 08be
00000380: 0e24 2dbe 800f a9bc 8f1a dfbd 98ef d3bd
00000390: 39ef 9ebe 18ff 2e3d 86ee f3bc 90af 363e
000003a0: 9e67 353d 91da 853e 9010 e5bd 0a19 0a3e
000003b0: 4c0b 863e e8a1 7abe ae8b 513e 7610 1cbe
000003c0: 80c9 c7bc 8cc7 92be 8bc6 273e f2db 823e
000003d0: 3446 babd 7cf6 143e 3797 533e 5a7e f73d
000003e0: 2206 fc3d 26d3 32be a67b 37bd ba83 0a3e
000003f0: e000 903e b508 503e 4a6e 0a3e 1b6d c7bd
-0.1802633 -0.035725135 0.0046359943 -0.05170204 -0.35556123 0.06616998 -0.061345153 0.072633855
-0.1092538 -0.03624986 -0.029045507 0.28086042 0.2056214 -0.07576393 0.3897804 -0.27298656
0.28418794 -0.28882876 0.019633677 0.1456532 0.017709456 0.23087883 0.056805763 0.18875407
0.043659743 -0.2598601 -0.05470701 -0.022134615 0.0112180635 -0.026407683 0.14153993 0.2584946
0.017047865 -0.20408018 -0.12833147 0.02713237 -0.10633046 0.20588961 0.021577176 -0.17682919
-0.1366038 -0.029038025 -0.15132456 0.22357988 0.35478684 0.060009312 0.21037175 -0.26196206
0.13028817 -0.017862504 0.1199637 0.28962588 -0.1829025 0.06286658 0.15413992 0.063713625
-0.018686976 0.054236457 0.07447987 0.034998186 0.088847965 0.23118906 -0.008640639 0.019298458
-0.1612151 -0.19043262 0.15217224 0.12378446 -0.50541794 0.28947884 -0.1929665 0.013942531
0.1154542 0.22704785 -0.2873365 0.1881935 0.32197648 -0.1379155 0.20626919 -0.14367518
0.1358913 -0.2976117 0.37981275 0.14151092 -0.2458039 0.23438093 0.15613794 0.32481286
0.19100021 -0.19603384 0.19928716 0.30070466 0.1299666 0.08958739 0.035509307 0.22614928
0.01646968 0.12894219 -0.013717349 -0.028233701 -0.1928872 0.2138218 -0.13556483 -0.0517076
0.13760374 0.045087438 -0.24898754 -0.016102081 0.122029014 -0.27458674 0.2560342 -0.030489072
0.0008277217 -0.20720612 0.034522273 0.29380816 -0.19292264 0.08417919 -0.077899285 0.17900798
0.110303424 -0.32238132 0.1425689 -0.057855625 0.088508315 0.10895407 0.1955416 0.019109335
0.13182808 0.086633004 -0.13514881 -0.18656394 0.23684932 -0.20724948 0.123155355 0.024743307
-0.15959364 -0.27442008 0.074116334 -0.2649564 -0.27995035 0.2793543 -0.21527945 -0.037493374
-0.006162888 0.232852 -0.25136 -0.06564895 -0.019921731 0.03694546 -0.046291307 -0.28980097
-0.0052573425 0.29173496 -0.15919983 -0.100969456 -0.19353001 -0.010186895 0.01754942 0.07459369
0.16415626 -0.1803906 -0.096894585 -0.042481784 -0.3779654 0.14889768 0.2520934 -0.09871199
-0.16658245 0.049470816 -0.004688344 -0.1651569 0.2539376 -0.0056350576 0.22652993 -0.019468814
-0.0052511054 -0.26963985 0.07447317 0.07455574 0.004899114 -0.1639159 0.0678464 0.2727943
0.012254516 0.09394067 0.16072308 -0.048072346 0.09633244 -0.037874725 -0.01011711 0.18717507
-0.08631693 0.071826436 0.035507366 0.043539107 -0.13496822 0.012487815 -0.21573648 0.013859167
0.063813366 -0.03429716 -0.3199068 0.22850159 0.21840751 -0.15738292 0.23888822 -0.11214352
-0.15844554 -0.11985271 0.09846703 0.3582188 -0.02861877 0.19562574 -0.057176474 0.085426815
0.060499985 -0.31350955 -0.025654187 0.11949161 0.2982169 0.07634634 0.2120794 -0.13359758
-0.16908285 -0.020637274 -0.108937375 -0.10348433 -0.31041887 0.042723745 -0.029776823 0.1784041
0.04428827 0.26143315 -0.111848 0.13486114 0.26180494 -0.24475825 0.2046344 -0.15240654
-0.024388075 -0.28667867 0.16384332 0.2555843 -0.090954214 0.14547151 0.20663153 0.120846465
0.12305857 -0.17463359 -0.044795655 0.13526812 0.28125668 0.20315821 0.13518634 -0.09737607

lstm.bias_ih_l0 f4 [128]
00000000: 9e9c 95be d6f0 babd 2f81 0bbe ad33 bfbd
00000010: 772d ce3c 746c 91be 0d7a 45bd 33c9 19be
00000020: 5e6d 8dbe 22d5 4e3e 30f1 653d f658 903e
00000030: 0491 c03e e484 153e 8b97 563d 39d0 b9be
00000040: 03a8 58be c0a6 533e 5b59 763e 121e 893e
00000050: 07bb b63d f869 7fbd 0c62 abbe 3dba 843e
00000060: d7c5 c53d 56c6 893e b51b 2dbe f2ef 163e
00000070: 2ff5 183e 32ce 9bbd c303 66be 94bb 0b3d
00000080: 0556 243d 4b57 93be 54fc 11be 5d5d 78be
00000090: 4aac 983d 06d1 3b3d 0d37 4fbe 4fbe 133b
000000a0: 7f11 9cbd 42c5 803e 7b9c 3f3d fd0c 823e
000000b0: 7b68 9d3e bd33 883e 6d88 c23c 6a7c 8cbe
000000c0: 9df3 14bd 7447 813e e160 763e aadf 8e3e
000000d0: 458a 883e 2bd5 89bd d419 6dbe 77c7 263e
000000e0: 918b 383e 2907 b93d 165c 88be 6f0e 9a3e
000000f0: 6c6e 083e c38d febd 426a 93be c75b 273e
00000100: 9c30 05be c101 d73d bcb7 b03d 82d5 00bc
00000110: 20e1 943e e1f2 87bd c835 20be ecdd 243e
00000120: a88b 6e3e 4bea a23c d01e c33d c68b d8bd
00000130: 9f1f 92be 3a99 8c3d 3639 5cbe 5903 cf3c
00000140: 481b 293e 72b2 16bc 161a e7bd 84b0 d9bd
00000150: 00d8 443d ec46 69be 08c2 243e 22fa 5ebe
00000160: f895 2cbe bfc0 5c3e d68b b03a 8903 a5bd
00000170: 3e74 89be 6506 3cbe 80d3 02bc 0c58 89be
00000180: a52b 97be 2b20 2cbe 4fdf e7be 0041 a3be
00000190: a1fe a03e c937 bbbe f1b4 93bd ed09 28be
000001a0: 7d23 8ebd c58d b2be 29fc 4cbe f03d 8cbe
000001b0: 64d0 ee3e 9d85 79be 4c3e c63e 578d 963d
000001c0: fa97 9abe 3477 bdbd 95c7 ddbe 5d46 b73e
000001d0: 4623 06be cab0 0abe 7ee5 68bd 44c0 933e
000001e0: ef39 babe 8b4b c5be 4324 433e 5fde b4be
000001f0: 23fa 75be 03bc a1be 9aa2 21be f8fc e6be
-0.29221052 -0.09127967 -0.13623498 -0.09336028 0.025168164 -0.28403056 -0.0482121 -0.15018158
-0.27622503 0.20198491 0.056138217 0.28192872 0.37610638 0.14601475 0.052390616 -0.36291674
-0.21157841 0.20669079 0.24057524 0.26780754 0.089223914 -0.06235692 -0.3347324 0.2592334
0.096568756 0.2690913 -0.169051 0.1473997 0.1493728 -0.07607688 -0.22462372 0.034114435
0.040121097 -0.28777537 -0.14256412 -0.24254365 0.074547365 0.045853637 -0.20235844 0.0022543853
-0.076205246 0.25150496 0.04678009 0.25400534 0.30743775 0.26601973 0.023746694 -0.2743867
-0.03636514 0.25249827 0.24060394 0.27905017 0.2666799 -0.06730112 -0.23154384 0.16287027
0.1802199 0.09034569 -0.26632756 0.30089137 0.13323373 -0.12429383 -0.28792006 0.16343604
-0.13006824 0.104983814 0.086287946 -0.007863404 0.29078007 -0.06638122 -0.15645516 0.16100281
0.23295462 0.01988711 0.095273614 -0.10573535 -0.2853975 0.06865163 -0.21506199 0.025270151
0.16514313 -0.009197818 -0.112842724 -0.10629371 0.048057556 -0.22780961 0.16089642 -0.21775106
-0.16854084 0.21557902 0.0013469409 -0.08057315 -0.26846498 -0.18361814 -0.007984996 -0.26824987
-0.29525486 -0.16809146 -0.45287558 -0.3188553 0.31444266 -0.36565998 -0.07212246 -0.16410036
-0.069403626 -0.34873787 -0.20018066 -0.27391005 0.46643364 -0.24367376 0.38719404 0.07351177
-0.30194074 -0.09251252 -0.43316332 0.3579587 -0.13099393 -0.13544002 -0.056859486 0.28857625
-0.36372325 -0.38534197 0.19056801 -0.35325906 -0.24021201 -0.31588754 -0.15784684 -0.45114875

lstm.bias_hh_l0 f4 [128]
00000000: 0cd3 85be d8f0 a8be ff70 c2be 56bd c1be
00000010: 5162 ce3d 9b5c 8dbe 01cd a8be eb8f 69be
00000020: 45f2 90be eee5 99bd ce6f ba3e 5e2c a13d
00000030: c612 4f3e 45c0 563e 5426 bc3d e642 90be
00000040: 8082 94be 0a0d dd3c bb9f a3bb 8c62 733e
00000050: bba1 9c3e 2646 8fbe 10c3 a9be 9049 5f3e
00000060: b390 55bd 30a2 d53d 6365 ecbe 1d6c 903e
00000070: fc89 77bc b739 b4bd 1adb e4be 27d2 1e3e
00000080: b032 06be c8ef 77be 9890 66be 83cd 7bbd
00000090: 5a5e 333e 7c10 a43d 9e76 55bd d4cc 1ebe
000000a0: 63b7 89be 7bf9 fd3d cd84 443e 8042 2a3e
000000b0: 2567 ad3d cdde 863b 67c6 a33e 40bb bbbe
000000c0: 1e5f 83bc 0677 513e 0f10 583d f831 993e
000000d0: d787 cc3d 6c9c b0be 1f7d a4bd 677c aa3d
000000e0: 89e5 7abd dfa8 1e3e 28a2 0bbe c6ce 9c3c
000000f0: bc65 803e acc3 c7bd 4ab5 93be 40a8 693e
00000100: ed71 b2bd 484a 813e e811 c43c 2345 51bd
00000110: 2647 693e 28b7 fcbd cc58 96bd 39e6 bb3d
00000120: 0fff 683e b7a1 cbbd 5f29 553e f1de 4abe
00000130: 4ad5 d5bd b8ba f93d a26a ecbd f95f 6f3e
00000140: 9a56 5d3b 7a4b e03c e081 3abe 29b0 6bbe
00000150: f072 9b3e bf92 29be 16b2 21bd 2ba9 3dbd
00000160: b3a9 73be 2f2e 18bd 7367 933d f492 16be
00000170: 2a5e 3fbe 1ebc 04be fb33 453e 3340 31be
00000180: 49d2 d7be be34 27be de45 c9be 8cbb 0fbe
00000190: 9484 a63e e86b 4cbe 3981 7dbd 86a2 8abe
000001a0: 728a 19be 6b64 48be a88b c7be 5f12 f1bd
000001b0: 0552 b43e 4b41 adbe b669 913e f5fc 8d3d
000001c0: 88c0 98be 7675 aebe 9074 cbbe 3337 423e
000001d0: 385d a0be dfab 39be a122 15be a30f 383e
000001e0: b86d 4abd 2fbd 6dbe 2348 49bd 225b 9fbe
000001f0: 4abb d8be c8e2 71be 60bc 3abe 78e0 cdbe
-0.26137578 -0.3299625 -0.37976834 -0.37839764 0.10077346 -0.27609715 -0.32968906 -0.22808807
-0.28309837 -0.07514559 0.36413425 0.078697905 0.20222005 0.20971783 0.09186998 -0.2817604
-0.29005814 0.026983757 -0.0049934066 0.23768061 0.3059214 -0.27983207 -0.33156633 0.21805406
-0.05213995 0.104313254 -0.46171102 0.28207484 -0.015108582 -0.08800071 -0.4469841 0.15509854
-0.13105273 -0.24212563 -0.22516096 -0.061475288 0.17516461 0.08010957 -0.052115075 -0.15507823
-0.26897725 0.124011 0.19191284 0.1662693 0.08466939 0.0041159154 0.31987306 -0.36666298
-0.016036566 0.2045556 0.05274969 0.29920936 0.09986847 -0.3449434 -0.080316775 0.08324509
-0.061254058 0.15494107 -0.13636076 0.019141566 0.25077617 -0.09754118 -0.2884925 0.22818089
-0.08713136 0.25251985 0.02393432 -0.051091325 0.22781047 -0.12339622 -0.073411554 0.09174771
0.22753547 -0.09942954 0.20816563 -0.19811608 -0.10441072 0.12193817 -0.11543776 0.23376454
0.0033773542 0.02737974 -0.18213606 -0.23016419 0.30361128 -0.16559885 -0.039476477 -0.04630391
-0.23795204 -0.03715342 0.07197466 -0.14704496 -0.18688264 -0.12962386 0.1925811 -0.17309646
-0.42152622 -0.16328713 -0.39311117 -0.14036387 0.32523024 -0.19963038 -0.061890814 -0.2707712
-0.14994219 -0.19569556 -0.38973737 -0.11771082 0.35218826 -0.33838877 0.28400964 0.06933013
-0.2983439 -0.3407399 -0.39737368 0.1896637 -0.3132112 -0.1813197 -0.14563991 0.17974715
-0.049421042 -0.23216699 -0.04914106 -0.31124216 -0.4233039 -0.23621666 -0.18235922 -0.4021032

lstm.weight_ih_l0_reverse f4 [128, 5]
00000000: 18f2 40be 3145 c7be 6c55 8cbe 0fd6 dbbe
00000010: f43b 60be ea8e 983e 853f ffbd 8f0c c3be
00000020: d1be 04be 2313 81be a8f7 583e 4fe2 22bf
00000030: 22eb babe 9b5a d4be ec3b 03bf c465 f63e
00000040: 8012 d13c 6e4d 18be 770b 2abe 5ed0 67bd
00000050: 6904 ca3e 2d87 43bd 9046 61bd bc56 54be
00000060: 9e3c 0abd b715 f43e 7282 0fbf 2a21 a8be
00000070: 3378 9bbe a9cc e4be ea35 8b3e 865f 8c3d
00000080: 291d b43d cf93 303e 3a9f 76bd 736a 8e3e
00000090: a1dc 71be d288 68be a07a f1bd adfc 04be
000000a0: 0f40 dfbd d6bc 98bd ba87 a9bc 2bab 82be
000000b0: 731e aebe 95f4 b93c 0298 f7be ead0 dfbe
000000c0: 3c3d fdbe 593a a7be db82 873e dcdb 503d
000000d0: 264d 6bbe 36ef 6abe 67ce 8d3d a49b cbbc
000000e0: 04d1 83be 3c54 aebe f7b1 37be 453c eabe
000000f0: d8a8 38be 5d09 84be f5e1 2fbe b2ce 88be
00000100: c1e3 b3be e3d7 6b3e 5564 b5be a703 26bd
00000110: 57df 63be a683 2fbe a3af e63e 4507 96be
00000120: 851b b1be 0bd6 a8be 48bb 4cbe 2978 3ebe
00000130: b983 90be 774d a4be 669a 03bf 1ff5 18bf
00000140: 11a0 92be c5b3 e3be 34eb b3be 88aa f9be
00000150: beba c5be 125f 4dbe bc03 f9be 053f 6cbe
00000160: b7e3 9ebe 022f 0fbe fa86 e43e f645 77be
00000170: b1ff 4ebe f748 b7bd f985 03be 9369 993e
00000180: 6d60 12bf d490 01bf f482 12bf c838 2ebf
00000190: 2fc2 073f 5320 95be 882f 26be a930 a4be
000001a0: bf60 f1bd 18f2 f93e fd2a 8abe 184c 08bf
000001b0: dee9 03bf 2b50 0ebf aa67 bfbe 4102 06bf
000001c0: c035 d5be e08f 03bf 4b78 fdbe 9ed1 efbd
000001d0: 42df e2be 7b7a 83be 38b6 15be 2044 a1be
000001e0: b864 0e3f 9d3b debe ae16 bebe 05c1 d8be
000001f0: 1464 35be f15b d13e c75a e1be 95ca 82be
00000200: 0f65 bdbe aa59 1fbe a791 993e 5432 433c
00000210: 92f1 4c3d 8f27 013d 54c1 6b3d 78a5 c13e
00000220: 284d 51be 4c14 57be 0514 96be 6a5d 7ebe
00000230: 5871 863e cc7a 1f3f 52d9 173f 4d60 c43e
00000240: 80b6 193f 6c7a 51be 630c 93be eb4d f9be
00000250: f792 03bf 9783 c1be 4515 3ebe b735 d0be
00000260: 7fe1 afbe 260a c8be 37fa f4bd d8e3 bd3e
00000270: 2c83 af3e 2987 9f3e ce77 a73e 30b1 8d3e
00000280: 9097 9a3d a733 373c 180b 283d eca9 f9bd
00000290: 6d14 183e c318 f8bd bdc8 873d 0dd4 a53d
000002a0: 6cf6 e4bc 208b e13d 6585 073e b57d 09be
000002b0: 3ee9 513d d928 4c3d 9a79 0fbd 422a 33be
000002c0: b547 2b3e e5d0 e13c 5238 d3bc c04e 533d
000002d0: ffbe d93b eb79 c43a 1509 8dbd af79 8c3d
000002e0: 7587 1c3e df05 033e 8dd4 073d 2af3 2f3e
000002f0: 1363 e33d 2881 83bd 86af debd dfb3 52bd
00000300: 8da8 ef3d 0d8c 2fbe 6156 17bb 859d bb39
00000310: 873f 1fbe 6395 263e 4cc1 febc 896e c73d
00000320: ad51 debd bd55 a83d 3688 043e d139 a23d
00000330: 8912 193e c298 f0bd 5d68 c23d b0be 91bd
00000340: 7e49 2c3e 442e 283e 7ab6 f43d 8272 03be
00000350: 9024 65bd 93d0 283d edbf 26be 7a2f 0dbd
00000360: c808 1cbe e3aa f43d 788d aebd 170d fd3d
00000370: 41b8 40ba dfa9 763c 6eb7 6b3d ea1c b9bd
00000380: 1850 333e afd0 42bc 5f63 dbbb 654e c3bd
00000390: 56b4 263e bfcf 0d3d 6135 953d 1399 66bc
000003a0: 46d9 20be 4337 813d 3b95 51bc f491 a4bc
000003b0: 9a13 d23d ea1d 9f3d d842 b9bd 3fd2 0bbe
000003c0: 0cf5 0c3e 2a88 e33d 0100 d83d 1f05 923d
000003d0: 2d6e a23d 9afd 2c3e 0353 97bd c708 efbd
000003e0: b022 abbd d7da e3bd a082 1abe 08a8 0ebe
000003f0: a975 21bd 7133 0a3e 9ece 2b3d 9cea d6bd
-0.18842351 -0.38919976 -0.27408922 -0.4293675 -0.2189787 0.29796535 -0.12463287 -0.3809552
-0.12963416 -0.25209913 0.21188223 -0.6362657 -0.36507517 -0.41475376 -0.5126331 0.48124516
0.025521517 -0.14873287 -0.16605936 -0.0565952 0.3945649 -0.047736336 -0.054998934 -0.20736212
-0.033749215 0.47672817 -0.5605842 -0.32837802 -0.30365142 -0.44687393 0.2718957 0.06854157
0.08794624 0.17243885 -0.060210444 0.2781559 -0.2361932 -0.22708443 -0.11790967 -0.12987013
-0.1090089 -0.074578926 -0.020694602 -0.25521216 -0.34007606 0.022699634 -0.4835816 -0.43714076
-0.4946078 -0.32661703 0.26467022 0.050990924 -0.22978649 -0.22942814 0.06924134 -0.024854489
-0.25745404 -0.3404864 -0.17938982 -0.45749107 -0.18033159 -0.25788394 -0.1717604 -0.26720196
-0.351347 0.23031573 -0.3542811 -0.040530827 -0.22253166 -0.17140064 0.45055875 -0.2930242
-0.34591308 -0.32975802 -0.19993317 -0.18600525 -0.28225496 -0.3209035 -0.5140747 -0.59749025
-0.28637746 -0.4447309 -0.35140383 -0.48762918 -0.38619035 -0.20055798 -0.48635662 -0.23070915
-0.31033108 -0.13982776 0.4463423 -0.24147782 -0.20214726 -0.08949464 -0.12844075 0.2996336
-0.57178384 -0.50611615 -0.5723107 -0.6805539 0.53030676 -0.29126224 -0.16229069 -0.32068375
-0.11786031 0.48817515 -0.26985922 -0.5324111 -0.5152873 -0.55591077 -0.37383777 -0.5234719
-0.4164257 -0.5139141 -0.4950584 -0.11709903 -0.44310957 -0.25679383 -0.14620292 -0.31497288
0.55622435 -0.43404856 -0.37126678 -0.42334762 -0.17713958 0.40890458 -0.4401457 -0.25545183
-0.36991164 -0.15561548 0.29993936 0.011913855 0.050035067 0.031531867 0.05755742 0.37821555
-0.20439589 -0.21003836 -0.2931215 -0.24840322 0.2625835 0.6229675 0.5931598 0.38354722
0.600441 -0.20456856 -0.28720388 -0.4869226 -0.51396126 -0.37795708 -0.18562801 -0.4066598
-0.34351727 -0.39070243 -0.11961787 0.37087893 0.34279764 0.31157807 0.3270859 0.27674246
0.075484395 0.0111817485 0.041026205 -0.12190613 0.14851542 -0.12114098 0.06630085 0.08097086
-0.027949534 0.11012864 0.1323448 -0.1342686 0.051247828 0.049843643 -0.035028078 -0.17496589
0.16726573 0.027565429 -0.025783692 0.051588774 0.006645083 0.0014989948 -0.06886498 0.06859147
0.15286048 0.12795208 0.03316169 0.17182603 0.11102881 -0.06421119 -0.10873322 -0.05144107
0.117020704 -0.17143269 -0.0023092257 0.0003578478 -0.15551578 0.16267924 -0.03109803 0.0973788
-0.10855422 0.08219478 0.12942585 0.07921184 0.14948477 -0.11747886 0.09492562 -0.07116449
0.1682491 0.16423899 0.11948867 -0.1283665 -0.05594307 0.041214537 -0.16284151 -0.034469105
-0.15237725 0.119466566 -0.08523077 0.12356012 -0.0007351675 0.015055149 0.05754798 -0.09038718
0.17511022 -0.011890574 -0.0066951956 -0.09536437 0.1627973 0.03462195 0.07285572 -0.014074582
-0.15707883 0.063093685 -0.012791927 -0.020089127 0.10257645 0.077693775 -0.090459526 -0.13654421
0.13765353 0.111099556 0.10546876 0.07129883 0.079311706 0.16893616 -0.0738888 -0.11671596
-0.083562255 -0.11125725 -0.15088892 -0.13931286 -0.03941885 0.13496186 0.041945092 -0.10493967

lstm.weight_hh_l0_reverse f4 [128, 32]
00000000: f7a2 24bd 63a1 973d ddf8 003e 1248 dd3d
00000010: e8a2 0ebc 6c94 e43d 2216 3fbd bdf2 1cbe
00000020: 40b8 9bbd cedb bc3d dd2e e8bb 8547 bfbd
00000030: 56aa 913d 70b2 1c3e b953 ab3d 523b 0b3e
00000040: 2677 e13d 4840 c1bd 69d1 b63d 96fc f5bd
00000050: 2759 f4bd e4e0 9a3c 34bb 983c 9d2d 343d
00000060: 8804 b93c 7058 0e3d b7b3 24bb ef0a b63c
00000070: fea7 12be 7737 5fbd 6619 09be 8c00 f53d
00000080: 23b8 003e 53b4 aabd 488b bdbd 9f39 203e
00000090: a135 cebc 09bc 123e 5777 903d 8ab9 0dbd
000000a0: cbf0 04be 584f 7e3d 0083 33be 32e7 c13d
000000b0: eb07 7f3d 9f71 323e 3afa 9abd fd0e 22be
000000c0: 77c7 a9bc 340f fc3b d6c6 f73b 9db9 28be
000000d0: b2ed 293e 4786 fe3d cfde c1bc a444 23be
000000e0: 1164 50bd a46f 833d 9af0 093d 7518 04be
000000f0: e0cf eabd 1b5d b7bd 8dff f0bd 0e9f 203d
00000100: 23de 4bbd 2653 02be 068b af3d d357 2fbe
00000110: 67cc 31be be9f e3bc 42de 1d3e 5b6d 6cbd
00000120: cd3b 7bbd 3da9 f9bd 4214 203e efe4 f7bc
00000130: 3460 2a3d fcaa ee3d 227b 013e 46fa 4ebd
00000140: 2697 09be 4ad2 433d 4103 49bd 4be9 863d
00000150: d120 1cbe 4ab9 2e3e 7e26 8fbd 9da6 b93d
00000160: e6bd 2dbc 7869 6cbd 5758 83b8 fc8d 083e
00000170: f4bb 643d b340 c43d 4580 28be aada 2abd
00000180: b28a b43d 4cf9 af3d 34be e93b 590d e33d
00000190: 177e 2fbe 232e b33d 0b25 033e 95e0 4c3b
000001a0: 5418 2f3e 8358 7ebb a898 553c b33e 053d
000001b0: 908e 213d 9551 093e 8786 5fbd 4769 d1bd
000001c0: b271 77bd c644 e23a 20e4 5c3d 1fd4 4c3c
000001d0: af47 2cbd 8b2a 0e3e 9464 2dbe ae54 02be
000001e0: 7d8b 32be 2d7f a53d 5223 193e cf4d 92bc
000001f0: d9bf 0b3d ed61 32bd 9dc5 1abe 392f c1bb
00000200: d11c 84bd 294a 783d d8e9 c3bd d500 293e
00000210: ed89 a93d 328a a03c 71b3 c3bc 8c28 2dbd
00000220: 4274 063e 383e b2bd 32f6 00be cd44 23be
00000230: c6a9 e13d 1f72 15bd 10e4 5bbb 3cf2 963d
00000240: aed4 debd 97db 25be 868b 133c 8fff a13d
00000250: a72a 1f3e 76b0 1a3e 1ea7 2e3e a599 b6bd
00000260: c5e5 063d 5089 173d d89b 2dbe a31e ff3c
00000270: 8ead 863d 4c96 ef3d 732c a4bd 5a0c 0e3e
00000280: 27ec 93bd a260 06bd 1212 c73d 49aa 0b3e
00000290: cb24 aabd 625a 2abe 5e79 1fbe 3fad 133e
000002a0: acb5 11bd 965b 323e bc85 17bd ee98 0c3e
000002b0: 1a12 eb3d a2e4 bcbd 4aed 9abd 2be4 103c
000002c0: 1e68 42bd 2c1e 173e ef7c 463d d112 d2bd
000002d0: 2512 e73d b8b1 6dbc d038 ce3c c156 783d
000002e0: e6c1 233e bbc8 173d 6b9b 1c3e 936a b13c
000002f0: cdb6 ae3b 0e09 0ebe 04bf 123e 35fc 97bd
00000300: a9c8 03be 68b9 ddbd 7ad2 30be abf4 483c
00000310: 59ed 8abc 8c84 303e 546a 14bd d612 5d3d
00000320: 6d61 f0bd cd03 a8bd e097 c1bc 3d38 8fbd
00000330: d12b 0bbe 7888 983c fcee cd3d d071 bfbd
00000340: b487 23bd 3ac3 333e 35b0 c73d 3dbe c7bd
00000350: 10b8 6d3d 7714 d8bd 8a53 2abd 00a2 cd3d
00000360: 28d0 f63d 6241 643d 71aa 23bd 4d61 59ba
00000370: 6104 aebd 8b2e 19be 0c7c 103b ad8b 8bbd
00000380: b07b 853c 200a 8cbd d0b7 7f3d d829 ed3d
00000390: f253 063e 72c7 ba3b a22f 153e 5f5f 0c3e
000003a0: a5b2 3fbd e6cc 323e 916c 82bd 92b0 c3bb
000003b0: 159c dd3d df8f c4bd f2fc e1bd c4ba 2c3d
000003c0: 2157 0dbe 9d8d 1dbe 030b 163d abc8 ac3d
000003d0: e0bc a83d 02ec 613d 38e0 93bd 7723 0e3e
000003e0: b755 5f3d f205 8fbd 9a79 b53d ee40 03be
000003f0: 1656 f93d 9753 793d eeb1 173d 3cf0 e43c
-0.040194478 0.07403829 0.12594934 0.10804762 -0.008705832 0.11161122 -0.046651967 -0.15326972
-0.07603502 0.09221612 -0.0070856647 -0.09339813 0.07112567 0.15302444 0.08365578 0.13596848
0.11009054 -0.09436089 0.089266606 -0.120110676 -0.11931067 0.018906064 0.018643953 0.043988813
0.022585168 0.03475231 -0.0025131532 0.02222201 -0.14321896 -0.054496255 -0.13388595 0.11962995
0.12570243 -0.08335175 -0.092550814 0.1564698 -0.025172057 0.14329542 0.07054012 -0.034600772
-0.1298248 0.062087387 -0.17530441 0.09467925 0.06226341 0.17426156 -0.07567258 -0.1582603
-0.020724995 0.007692242 0.007561545 -0.16477056 0.1659458 0.12427955 -0.023665814 -0.15944153
-0.05087668 0.06417778 0.03367672 -0.12899955 -0.1146543 -0.08953305 -0.117674924 0.039214186
-0.049772393 -0.12727031 0.085714385 -0.17123346 -0.1736313 -0.027786132 0.15416816 -0.057721477
-0.061336327 -0.12190483 0.15632728 -0.030260531 0.041595653 0.116537064 0.12644628 -0.050531648
-0.13436565 0.04780797 -0.04907537 0.06587466 -0.15246893 0.1706287 -0.06989764 0.09064982
-0.010604357 -0.05771777 -6.263021e-05 0.13335413 0.05584331 0.09582653 -0.16455181 -0.04171244
0.088155165 0.085924715 0.0071332697 0.1108653 -0.17137943 0.08749034 0.128071 0.003126179
0.17099124 -0.0038810081 0.013036884 0.032530498 0.0394426 0.13410027 -0.054571655 -0.10225158
-0.060411163 0.0017262928 0.053928494 0.0125017455 -0.04206055 0.13883416 -0.16932899 -0.12727615
-0.17436023 0.080808975 0.1495488 -0.017859368 0.034118507 -0.04355042 -0.15114446 -0.005895522
-0.06450809 0.0606176 -0.095660865 0.16504224 0.082782604 0.019597147 -0.023889275 -0.042274997
0.13130286 -0.087032735 -0.12593916 -0.15944214 0.1101871 -0.036485787 -0.0033552684 0.07370421
-0.10880409 -0.16197048 0.009005433 0.07910072 0.15543614 0.15106377 0.17055938 -0.08916024
0.03293397 0.036996186 -0.16953981 0.031142538 0.06576072 0.11698589 -0.080162905 0.13871899
-0.07222777 -0.032807 0.097202435 0.13639177 -0.08307799 -0.16636041 -0.15573642 0.14421557
-0.035573646 0.1741775 -0.036992773 0.13730213 0.11478062 -0.09223296 -0.075647905 0.008843462
-0.047462575 0.14757603 0.04845899 -0.10257495 0.11282758 -0.0145077035 0.025173575 0.06062961
0.15991935 0.037056666 0.15293662 0.021657264 0.00533185 -0.13870642 0.14330679 -0.074211515
-0.12869515 -0.10826379 -0.1726779 0.012265365 -0.01695888 0.17238063 -0.036234215 0.05397304
-0.117373325 -0.0820385 -0.02363199 -0.069931485 -0.13590933 0.01861976 0.10055348 -0.0934788
-0.03992434 0.17554942 0.09750406 -0.09753082 0.058036864 -0.10550778 -0.041583575 0.10040665
0.120514214 0.055726416 -0.039957467 -0.0008292392 -0.08496929 -0.14959161 0.0022046594 -0.068137504
0.01629433 -0.06837869 0.062431157 0.11580247 0.1311796 0.0057000453 0.14568952 0.13708256
-0.046801228 0.17460975 -0.06368364 -0.0059719766 0.10820786 -0.09597754 -0.110345736 0.0421703
-0.13802768 -0.15386052 0.036631595 0.08436712 0.0823915 0.055156715 -0.07220501 0.13880716
0.054525103 -0.06983556 0.08861084 -0.12817737 0.12174623 0.060870733 0.03703492 0.027946584

lstm.bias_ih_l0_reverse f4 [128]
00000000: a938 a6be b16f c2be 7209 08bf 29af 86bd
00000010: 7f53 a0bd 74d9 18bf 8efc 263e ecc6 42be
00000020: f29b 7b3c 9e9b d7be 0b02 0fbe 65b6 4ebe
00000030: 06ad c3be 27f6 89be a994 54be 1043 b3be
00000040: 13eb d2be 2799 29be ed35 48be 9cd2 82be
00000050: d7c3 44be 47f3 16bf 8d02 9dbe f764 eebe
00000060: b7ea 4ebe 83d7 aabe 469b 28be 9bb8 1ebe
00000070: 51a1 db3e 14f9 d8be abec 9bbe c1ad ce3e
00000080: 0559 a23d 051a 6ebc f033 013e 5243 d63d
00000090: 507d 46bc 6ba0 c7bc a836 f63d d084 08be
000000a0: c2da 1cbe 741e 00be 7db8 783b 7ac4 0f3e
000000b0: d9a1 c0bc b409 88bd 7a8b f6bd b3f2 fdbd
000000c0: 2156 333e ff49 c9bd 360a 2bbe d719 1e3e
000000d0: 8f9b 533d 5561 cb3c 4d7b 253e a86c c3bd
000000e0: 9180 a1bd 0d4e 973d ac39 1fbe ddac 8b3d
000000f0: 2c35 92bd 861f 04be 1268 0abe f983 f9bd
00000100: 403c 383d 45cc 063d 2ea9 093b 66d5 8e3e
00000110: cd59 2a3e ec6a 573d 6c69 adbe 9387 053e
00000120: f07b bebe 0c6c 14be 8564 733e a7a0 b63d
00000130: c35a 0e3f a8f5 4c3d 2f6d 09be 8536 9dbd
00000140: e70a 0abe 94e1 28bd 121d a73d 2924 943d
00000150: 475f 64bd 70a4 bfbd af0c 6ebd be07 09bd
00000160: 7695 dabd b6de 333e 6382 b43d 2ead 803e
00000170: 8901 9a3e 13b0 983d f5d0 f53d 89bd 02bd
00000180: 2d58 d7be afb7 ffbe 9830 eabe aea8 813d
00000190: 8b25 e0bd e200 c5be 898e 0cbf 5534 11bf
000001a0: 9a6b f3be c544 2dbf ce42 b2be d7fd d8be
000001b0: 36b3 1ebe 0598 a5be f604 c2be 1110 d4be
000001c0: b932 73be fe69 f0be f4c5 80be b8ba 7bbe
000001d0: 8693 35be 0b11 6cbe d6ba a4be b9d5 9bbe
000001e0: 4dff 5cbe 5d73 85be eb3f 82bd 9850 aa3d
000001f0: c8f4 013f 5a6b 46be d7df a7be ea16 393e
-0.32465103 -0.3797584 -0.5313941 -0.06576378 -0.078284256 -0.5970681 0.1630728 -0.19021195
0.0153570045 -0.42110914 -0.13965623 -0.20186765 -0.38217944 -0.26945612 -0.20759834 -0.35012102
-0.41194972 -0.16562329 -0.19551821 -0.25551307 -0.19215332 -0.5896496 -0.3066601 -0.46561405
-0.20206724 -0.33367547 -0.16465482 -0.15500109 0.42896512 -0.42377532 -0.30454 0.4036694
0.079271354 -0.014532571 0.12617469 0.10462059 -0.012114838 -0.024368485 0.120221436 -0.13331914
-0.15317824 -0.12511617 0.003795176 0.14039794 -0.023514675 -0.06642476 -0.12038322 -0.12399807
0.17513324 -0.09828567 -0.16703114 0.15439545 0.051662024 0.024826685 0.16160317 -0.09542209
-0.0788585 0.07387934 -0.15549344 0.068200804 -0.07139048 -0.1290265 -0.13516262 -0.12183375
0.044979334 0.03290965 0.002100538 0.27897185 0.16635819 0.052592203 -0.33869493 0.13039999
-0.37203932 -0.14494342 0.23768814 0.08917361 0.5560724 0.050038964 -0.13420556 -0.076764144
-0.13480721 -0.041230753 0.081598416 0.072334595 -0.055754926 -0.09357536 -0.058117565 -0.03345465
-0.10673039 0.17565426 0.08813932 0.25132126 0.30079296 0.074554585 0.12002746 -0.031919036
-0.4205946 -0.49944827 -0.457402 0.06331001 -0.10944661 -0.38477236 -0.5490499 -0.5672048
-0.4754303 -0.6768306 -0.34816593 -0.42381164 -0.15498051 -0.32342544 -0.3789441 -0.41418508
-0.23749818 -0.46955866 -0.25151026 -0.24582946 -0.17732057 -0.23053376 -0.32173795 -0.30436495
-0.21581765 -0.26064578 -0.06359848 0.08316153 0.5076413 -0.19376889 -0.32787964 0.18075147

lstm.bias_hh_l0_reverse f4 [128]
00000000: 27bb 58be eb46 79be a69d 07bf f9f9 8a3d
00000010: 5f19 62be 0798 8dbe 07d2 38bd 7b3e 56be
00000020: 3449 b3bb 7772 48be 4611 253d 3513 cebe
00000030: a262 b2be 1af3 1bbe ad9c f5bd 5801 14bf
00000040: da7a 71be a5a8 f5be fcf4 073c 281e 06bf
00000050: 8eab a3be 7d5d 88be 8e57 01bf e65d 8bbe
00000060: 7a52 cebe a4f5 36be a02e 543c dc7f 83be
00000070: c150 a33e aa78 d0be 7027 7cbe e58a 4b3e
00000080: 9db0 063e 1413 fb3c 48a9 2cbe ce53 993c
00000090: f85d 3b3c 99b9 5ebd 6ca5 28bd 91ba 23be
000000a0: 85bd f1bd 26a3 0abe 537b ddbd b780 42bd
000000b0: f19a eabd 7c3d ea3c 5e1b 26bc d302 eabd
000000c0: fdb7 163e 1a4a ca3d 501c 173e 9316 bb3d
000000d0: bf37 643d 419b 30be 45b4 df3d 8c43 24be
000000e0: 3f5c 993d 39d2 ebbd e05c 953d 1c8a 03be
000000f0: 6828 bbbd b84a 073e 04bc 283e 320e c03b
00000100: 92bb 08bd a14f 91be 6947 9ebe d872 b53e
00000110: f752 db3d f859 4e3d e867 d7bd d46d 8e3e
00000120: 1e89 8ebe 0802 97be ef62 4f3e e409 063e
00000130: 3082 8b3e 6f49 023e 2491 723d 0fc3 53bd
00000140: ea63 abbd 20a0 51be 9809 a23d 5557 b1bd
00000150: 0288 e13d 2656 0d3d a22e 2bbe 0e0a 163e
00000160: ade6 bdbd 06d4 8cbd e786 26bc 3a45 4c3d
00000170: 5346 753e 8920 1a3e b2d8 5bbe ecd9 92be
00000180: 7d7d fabe 36a6 00bf dc93 d4be 9285 533c
00000190: 18f1 023d 55c2 bebe cc8c 14bf c0c2 78be
000001a0: 6043 8fbe 7857 22bf 13b8 80be 5486 1ebf
000001b0: f75d b1be cd4f c8be fd81 01be 4af2 b1be
000001c0: db7a 09bf 44da e1be 9bd5 093d 448e 9ebe
000001d0: 31a5 d0be 4ef7 85bd 2401 0dbf 50d2 3bbe
000001e0: fe95 cdbe 150b acbe b091 25be 003b ddbd
000001f0: 4257 023f 7a9f 3dbe 7c23 eebe edec d83d
-0.21165143 -0.2434346 -0.5297493 0.0678596 -0.22079991 -0.2765505 -0.045122173 -0.20922272
-0.005471373 -0.19574915 0.040299676 -0.4024903 -0.34840876 -0.15229455 -0.11992774 -0.5781455
-0.2358202 -0.47980228 0.008298155 -0.52389765 -0.31966823 -0.26633826 -0.5052422 -0.27220076
-0.402973 -0.17867142 0.012950569 -0.25683486 0.31897548 -0.4071706 -0.24624419 0.19877203
0.1315331 0.030648746 -0.1686145 0.018716719 0.011435978 -0.05437622 -0.041173384 -0.15989138
-0.11803726 -0.13538799 -0.10814538 -0.047486033 -0.11455334 0.028593771 -0.010138361 -0.1142632
0.14718623 0.09877415 0.14756894 0.09135165 0.055717226 -0.17246725 0.109230556 -0.16041392
0.07488298 -0.11514706 0.07293105 -0.12845653 -0.09138566 0.13212097 0.16477972 0.005861067
-0.033382006 -0.28381065 -0.30913857 0.3543918 0.10709184 0.05037877 -0.105178654 0.27818167
-0.27838987 -0.29493737 0.20252584 0.1308971 0.27247763 0.12723325 0.059220448 -0.051699694
-0.083686665 -0.20471239 0.07911986 -0.086592354 0.110122696 0.034505986 -0.16717008 0.14652273
-0.092725135 -0.06876378 -0.010163999 0.049870707 0.23952608 0.15051474 -0.21469381 -0.28681886
-0.48923865 -0.5025362 -0.41519058 0.012910264 0.031968206 -0.3725764 -0.5802734 -0.24293041
-0.2798109 -0.63414717 -0.25140437 -0.6192372 -0.34642002 -0.39123383 -0.12647243 -0.34755164
-0.5370309 -0.44111836 0.033650976 -0.30967915 -0.4075103 -0.0654131 -0.55079865 -0.18341947
-0.40153497 -0.33602205 -0.16168857 -0.10802269 0.50914395 -0.18517867 -0.46511447 0.10592065

fc.weight f4 [5, 64]
00000000: b9ad 753c cba5 b63c 2be5 3abd 3038 d73c
00000010: 58e3 ea3e 6e0b 5fbd 9cf8 283d 7615 783d
00000020: 90f2 733d da8d e7bd dc17 443e 212f debd
00000030: 6d51 e7be 141d ba3e 0a69 cfbe b768 6d3e
00000040: e9d2 be3c 88a0 893e 6dc6 3ebe e4fc babe
00000050: 9a40 ca3e 1857 13be a132 2cbc a5d6 9bbe
00000060: 4670 96bc 90fd 7e3e 9cef 10be 1ea4 9fbd
00000070: 7161 69be 4ebe dcbc b086 9b3c a4ac a0be
00000080: 8e5c 2dbd ae76 a93e 594c 473e 7220 05bf
00000090: f333 c9be dac2 d63e e139 ec3e eb40 b9be
000000a0: 26ba 5bbc 133b 093e 275d b0be 87ec babd
000000b0: 0fb4 92bd 71cf 93be f7b4 df3e 8db9 333d
000000c0: 8f22 a53d 6a30 733d eaa2 03bf 6e08 413e
000000d0: fc0b fcbe 00b4 fbbe 768a e43d 096a d93c
000000e0: 8e26 f9be f438 e7be 1f76 bd3e 5e6a ddbe
000000f0: c8b4 26bf 5281 9fbd b395 db3c 70e0 e83e
00000100: dc7e 79bd 360d 823d 9315 14be 849f ab3c
00000110: 76da 283e cc33 08bc 2870 58bd 9221 393d
00000120: 466b 8c3d 41f4 40bd d71e 933c 0e3c 1e3d
00000130: feab bbbd 9bc3 483d 9a65 32be 0609 e43d
00000140: 178d afbc e10e 743d bb16 833d 96c9 cfbd
00000150: 4f58 523e 92b1 893d 0af0 efbc e04f a5bd
00000160: 69f8 80bd c818 553e 201a 07bd 8199 62bd
00000170: e1cf c73d 39ad cc3c 82dc 12be a419 7bbd
00000180: 1eb2 203d 71b1 dc3d 2d72 063e 104c e03d
00000190: e4ff b53d 5d4a 843d caf6 963c 2474 4cbd
000001a0: 243a b0bd 83d5 813e 8062 d6bd 2539 d0bc
000001b0: 6bd4 61bd 39bf 8bbd 2acb 91bd 5613 15be
000001c0: 8e0f 29bc 6529 573d ea0e fa3d 0b6d 083e
000001d0: 5818 a9bd 02f5 afbd 6734 2ebd 60c6 903c
000001e0: e349 b7bd 2c15 f5bd b8de 21bc ae4c 683d
000001f0: e80a 123e eae5 d53d 1635 90bd 956e bbbd
00000200: 5c1d 273d 9880 d1bb d77b 483d c517 463c
00000210: a62b 493c bdbd 3abc 323b e63d 72f5 44bd
00000220: 74d9 8e3c ee05 d63d 4877 d7bd 7227 8fbd
00000230: f604 27be eb29 9f3d becc eebd 314b 333e
00000240: 65e7 3f3b 4cb1 ce3d 81e9 2a3d fff9 8bbd
00000250: ad8d 233e f256 5abc 80ea 513b 2820 adbd
00000260: 533e 38bd cd3c 0d3e c22f 1cbe b802 093b
00000270: 96a6 48bd dfcc a33d bffa 0fbe 995d b8bd
00000280: 8464 0f3e 304f 8e3d 83ab 143d aac7 1a3d
00000290: cdb3 b73d e8fa bf3d f3a4 c93d 3701 06bd
000002a0: 98dc bd3c 4d12 3d3e 35d9 0bbe 6b68 94bb
000002b0: 96d6 df3c 4edd 0dbe fffa 03be 2c7b 2ebd
000002c0: 187b 8d3d 84df 97bd 98fc adbd 1eaa c23d
000002d0: 0d98 5f3d b3a0 0dbe 8f0b 37be 2130 373e
000002e0: a01c 37bd 1262 7fbb 4845 ed3d 24dd b3bb
000002f0: f765 893e fe15 843c bbeb 82bd 05b3 1bbe
00000300: b458 db3d 54e2 edbc ed20 32bd b43f 98bd
00000310: 881a 98bb e502 51be 239b 19bc 46f6 093d
00000320: eb62 01bd 7f4e 86bd dbd7 cebb 5da6 2bbd
00000330: aeb0 58be bb5a 4e3e d40f 36bc 9ca9 a53d
00000340: 0896 763d 3eb9 2fbd 5661 fcbd 2b63 10be
00000350: 675e 643c 6b72 59bd cb2b 05be 841c 89be
00000360: 29ae fd3c 0883 073d 1906 38be f508 1c3d
00000370: 5fc9 7aba d7f4 3fbd c9a0 0cbe f10e e2bd
00000380: 1303 543e 4294 823d b819 0e3e ec38 d23d
00000390: f802 c43d 1045 c5bc a137 033e d4f3 e8bd
000003a0: 8834 2e3d 5de4 cc3d 8a55 3cbe f29a 10be
000003b0: 9157 20bc 895c 04be 8402 033b 1697 d3bc
000003c0: d120 3dbe 3b2b c43d 9875 c1bc 155f bd3c
000003d0: 9b05 d13d bfdc 9bbd 2866 47be b2dd f23d
000003e0: 56e8 693d 0d6e a8bd 0174 d03d b675 6ebd
000003f0: 52f5 8c3e 9e19 583d fb8b a5bd b98e 80bd
0.014995032 0.022295853 -0.045628708 0.02627191 0.45876575 -0.05445426 0.041252717 0.06056734
0.059557498 -0.11306353 0.19149727 -0.10848833 -0.4517931 0.3635031 -0.40509826 0.23184477
0.02329393 0.26880288 -0.18630381 -0.36521065 0.39502412 -0.14388692 -0.010510118 -0.30437198
-0.018364083 0.24901414 -0.14153904 -0.07794975 -0.22791077 -0.026946213 0.018985122 -0.31381714
-0.042324595 0.33098358 0.19462718 -0.5200263 -0.39297447 0.41945535 0.46137908 -0.3618234
-0.01341108 0.13401441 -0.3444607 -0.09127145 -0.0716325 -0.28869203 0.43692753 0.043878127
0.08063232 0.059372343 -0.5142046 0.18850872 -0.49227893 -0.49160767 0.11159222 0.02653982
-0.48662227 -0.4516064 0.37004182 -0.43245214 -0.651196 -0.07788338 0.02680478 0.45483732
-0.060912 0.06350176 -0.14461355 0.020950086 0.16489586 -0.008313131 -0.052841336 0.04519803
0.06856398 -0.04710794 0.017959042 0.03863149 -0.09163664 0.04901467 -0.1742157 0.111345336
-0.021429582 0.059584502 0.0640082 -0.10145871 0.205415 0.06723322 -0.029289264 -0.080718756
-0.062973805 0.20810235 -0.0329839 -0.055322174 0.09756447 0.024984943 -0.1434193 -0.06130375
0.039232366 0.10776032 0.13129492 0.10952008 0.08886698 0.06459496 0.018428225 -0.049915448
-0.086048394 0.2535821 -0.10468006 -0.025417874 -0.05513422 -0.06823582 -0.071188286 -0.14558157
-0.01031865 0.05252971 0.12209876 0.13322847 -0.08256596 -0.085916534 -0.042530444 0.017672718
-0.0894964 -0.11966929 -0.00987976 0.056713752 0.14261973 0.10444243 -0.07041375 -0.09151951
0.040799484 -0.0063935034 0.048946228 0.012090628 0.012278473 -0.011397776 0.11241759 -0.048085637
0.017437674 0.1045035 -0.10520798 -0.069899455 -0.16310486 0.07771667 -0.11660145 0.17509152
0.002928221 0.100924104 0.041726593 -0.06834792 0.15972014 -0.013326393 0.0032030642 -0.08453399
-0.044981312 0.13792725 -0.15252593 0.0020906162 -0.048986994 0.079980604 -0.14060496 -0.09002227
0.14003187 0.069486976 0.03629638 0.03778807 0.08969841 0.093740284 0.09845915 -0.032716002
0.023176476 0.18464012 -0.13657077 -0.004529049 0.027324002 -0.13853952 -0.12888716 -0.042597935
0.06908244 -0.07415679 -0.08495444 0.095051035 0.054588366 -0.13830833 -0.17875503 0.17889453
-0.044705033 -0.0038968367 0.1158548 -0.0054890085 0.26835606 0.016123768 -0.06392618 -0.1520501
0.10710278 -0.029038586 -0.04348843 -0.074340254 -0.0046418346 -0.2041126 -0.009375366 0.03368213
-0.031588476 -0.06557941 -0.006312353 -0.041906703 -0.21161148 0.20151798 -0.011112172 0.08088991
0.060201675 -0.04290127 -0.12323253 -0.1410033 0.013938523 -0.053087633 -0.13004987 -0.26779568
0.030966835 0.033083946 -0.17971076 0.03809448 -0.000956675 -0.046864357 -0.1373321 -0.11038006
0.20704298 0.06375934 0.13876998 0.10264763 0.09570879 -0.024080783 0.1281419 -0.113746315
0.042530566 0.10004494 -0.18392006 -0.14121607 -0.009786502 -0.12925924 0.0019990513 -0.02582888
-0.1846955 0.09578558 -0.023615643 0.023116628 0.10206147 -0.07610463 -0.19472563 0.11858691
0.05710634 -0.082241155 0.10178376 -0.058217727 0.27530915 0.052758805 -0.0808334 -0.06277222

fc.bias f4 [5]
00000000: 6134 7e3e 822e 2d3e a154 8b3e 0418 383e
00000010: 29e7 5d3e
0.24824668 0.16912273 0.27213004 0.17977911 0.21670212
